deepgengraph.kernel @Attn_p0(%arg0: tensor<1x4096x32x128xf16> loc(unknown), %arg1: tensor<1x4096x32x128xf16> loc(unknown), %arg2: tensor<1x4096x32x128xf16> loc(unknown), %arg3: tensor<1x32x4096x1xf32> loc(unknown)) -> tensor<1x4096x32x128xf16> {
  %cst = arith.constant dense<1.131250e+01> : tensor<1xf16> loc(unknown)
  %0 = deepgengraph.trilu diagonal = 1, is_upper = true, shape = [4096, 4096], val = 0xFC00 : f16 loc(unknown)
  %1 = deepgengraph.permute %arg0, dims = [0, 2, 1, 3] : (tensor<1x4096x32x128xf16>) -> tensor<1x32x4096x128xf16> loc(unknown)
  %2 = deepgengraph.permute %arg1, dims = [0, 2, 1, 3] : (tensor<1x4096x32x128xf16>) -> tensor<1x32x4096x128xf16> loc(unknown)
  %3 = deepgengraph.permute %arg2, dims = [0, 2, 3, 1] : (tensor<1x4096x32x128xf16>) -> tensor<1x32x128x4096xf16> loc(unknown)
  %4 = deepgengraph.dot %1, %3 : (tensor<1x32x4096x128xf16>, tensor<1x32x128x4096xf16>) -> tensor<1x32x4096x4096xf16> loc(unknown)
  %5 = deepgengraph.div %4, %cst : (tensor<1x32x4096x4096xf16>, tensor<1xf16>) -> tensor<1x32x4096x4096xf16> loc(unknown)
  %6 = deepgengraph.add %5, %0 : (tensor<1x32x4096x4096xf16>, tensor<4096x4096xf16>) -> tensor<1x32x4096x4096xf16> loc(unknown)
  %7 = deepgengraph.convert %6, type = f32 : (tensor<1x32x4096x4096xf16>) -> tensor<1x32x4096x4096xf32> loc(unknown)
  %8 = deepgengraph.exp %7 : (tensor<1x32x4096x4096xf32>) -> tensor<1x32x4096x4096xf32> loc(unknown)
  %9 = deepgengraph.div %8, %arg3 : (tensor<1x32x4096x4096xf32>, tensor<1x32x4096x1xf32>) -> tensor<1x32x4096x4096xf32> loc(unknown)
  %10 = deepgengraph.convert %9, type = f16 : (tensor<1x32x4096x4096xf32>) -> tensor<1x32x4096x4096xf16> loc(unknown)
  %11 = deepgengraph.dot %10, %2 : (tensor<1x32x4096x4096xf16>, tensor<1x32x4096x128xf16>) -> tensor<1x32x4096x128xf16> loc(unknown)
  %12 = deepgengraph.permute %11, dims = [0, 2, 1, 3] : (tensor<1x32x4096x128xf16>) -> tensor<1x4096x32x128xf16> loc(unknown)
  deepgengraph.return %12 : tensor<1x4096x32x128xf16> loc(unknown)
} 